…
To enable them in other operations, rebuild TensorFlow with the appropriate compiler flags.
2025-07-03 02:36:09.068744: I tensorflow/core/common_runtime/gpu/gpu_device.cc:1532] Created device /job:localhost/replica:0/task:0/device:GPU:0 with 2128 MB memory:  -> device: 0, name: NVIDIA GeForce GTX 1650 Ti, pci bus id: 0000:01:00.0, compute capability: 7.5
Model: "model"
_________________________________________________________________
 Layer (type)                Output Shape              Param #   
=================================================================
 input_2 (InputLayer)        [(None, 224, 224, 3)]     0

 mobilenetv2_1.00_224 (Funct  (None, 7, 7, 1280)       2257984
 ional)

 global_average_pooling2d (G  (None, 1280)             0
 lobalAveragePooling2D)

 batch_normalization (BatchN  (None, 1280)             5120
 ormalization)

 dense (Dense)               (None, 256)               327936

 dropout (Dropout)           (None, 256)               0

 dense_1 (Dense)             (None, 2)                 514

=================================================================
Total params: 2,591,554
Trainable params: 331,010
Non-trainable params: 2,260,544
_________________________________________________________________
Computed Class Weights: {0: 0.9784309077980564, 1: 1.0225414912063413}

--- Starting Phase 1: Training top layers ---
Epoch 1/15
2025-07-03 02:36:17.568809: I tensorflow/stream_executor/cuda/cuda_dnn.cc:384] Loaded cuDNN version 8100
…
